//RUN: onnx-mlir --EmitONNXIR --run-torch-pass %s -o=%t >/dev/null && cat %t.onnx.mlir | FileCheck -v %s
module attributes {llvm.data_layout = "e-m:e-p270:32:32-p271:32:32-p272:64:64-i64:64-f80:128-n8:16:32:64-S128", llvm.target_triple = "x86_64-unknown-linux-gnu"}  {
  func @main_graph(%arg0: tensor<1x3x22x22xf32>) -> tensor<1x4x4x4xf32> attributes {input_names = ["input.1"], output_names = ["7"]} {
    %0 = "onnx.Constant"() {value = dense<"…"> : tensor<10x3x5x5xf32>} : () -> tensor<10x3x5x5xf32>
    %1 = "onnx.Constant"() {value = dense<[-0.0322042145, -0.0259752031, 0.0866502374, 0.105018236, -0.0164633803, 0.0107566575, 0.0773589313, 0.0473143049, -0.0915365815, -0.115040816]> : tensor<10xf32>} : () -> tensor<10xf32>
    %2 = "onnx.Conv"(%arg0, %0, %1) {dilations = [1, 1], group = 1 : si64, kernel_shape = [5, 5], onnx_node_name = "Conv_0", pads = [1, 1, 1, 1], strides = [2, 2]} : (tensor<1x3x22x22xf32>, tensor<10x3x5x5xf32>, tensor<10xf32>) -> tensor<1x10x10x10xf32>
    %3 = "onnx.Constant"() {value = dense<"…"> : tensor<4x10x3x3xf32>} : () -> tensor<4x10x3x3xf32>
    %4 = "onnx.Constant"() {value = dense<[-0.0964758396, 0.00226509175, 0.0602917597, 0.0401068479]> : tensor<4xf32>} : () -> tensor<4xf32>
    %5 = "onnx.Conv"(%2, %3, %4) {dilations = [1, 1], group = 1 : si64, kernel_shape = [3, 3], onnx_node_name = "Conv_1", pads = [2, 2, 2, 2], strides = [3, 3]} : (tensor<1x10x10x10xf32>, tensor<4x10x3x3xf32>, tensor<4xf32>) -> tensor<1x4x4x4xf32>

    //CHECK: [[ALPHA:%[^ ]*]] = torch.constant.float 0.0099999997764825821
    //CHECK: torch.aten.leaky_relu %15, [[ALPHA]] : !torch.vtensor<[1,4,4,4],f32>, !torch.float -> !torch.vtensor<[1,4,4,4],f32>
   
    %6 = "onnx.LeakyRelu"(%5) {alpha = 0.00999999977 : f32, onnx_node_name = "LeakyRelu_2"} : (tensor<1x4x4x4xf32>) -> tensor<1x4x4x4xf32>
    return %6 : tensor<1x4x4x4xf32>
  }
  "onnx.EntryPoint"() {func = @main_graph, numInputs = 1 : i32, numOutputs = 1 : i32, signature = "[    { \22type\22 : \22f32\22 , \22dims\22 : [1 , 3 , 22 , 22] , \22name\22 : \22input.1\22 }\0A\0A]\00@[   { \22type\22 : \22f32\22 , \22dims\22 : [1 , 4 , 4 , 4] , \22name\22 : \227\22 }\0A\0A]\00"} : () -> ()
}
