//RUN: onnx-mlir --EmitONNXIR --run-torch-pass %s -o=%t >/dev/null && cat %t.onnx.mlir | FileCheck -v %s
module attributes {llvm.data_layout = "e-m:e-p270:32:32-p271:32:32-p272:64:64-i64:64-f80:128-n8:16:32:64-S128", llvm.target_triple = "x86_64-unknown-linux-gnu"}  {
  func @main_graph(%arg0: tensor<1x3x50x50xf32>) -> tensor<1x6x4x4xf32> attributes {input_names = ["input.1"], output_names = ["8"]} {
    %0 = "onnx.Constant"() {value = dense<"…"> : tensor<13x3x5x5xf32>} : () -> tensor<13x3x5x5xf32>
    %1 = "onnx.Constant"() {value = dense<[0.0416226424, -0.0957131237, 0.0954335555, -0.0822716504, -0.033737082, -0.0786907672, -0.0446198434, 0.0934575051, -0.0768411383, 0.0414343625, 0.0028733965, -0.101118609, 0.0123342201]> : tensor<13xf32>} : () -> tensor<13xf32>
    %2 = "onnx.Conv"(%arg0, %0, %1) {dilations = [1, 1], group = 1 : si64, kernel_shape = [5, 5], onnx_node_name = "Conv_0", pads = [2, 2, 2, 2], strides = [2, 2]} : (tensor<1x3x50x50xf32>, tensor<13x3x5x5xf32>, tensor<13xf32>) -> tensor<1x13x25x25xf32>
    %3 = "onnx.Constant"() {value = dense<"…"> : tensor<6x13x3x3xf32>} : () -> tensor<6x13x3x3xf32>
    %4 = "onnx.Constant"() {value = dense<[-0.0601240806, 0.044956442, -0.026510736, -0.0411429368, 0.0382534415, 0.016481176]> : tensor<6xf32>} : () -> tensor<6xf32>
    %5 = "onnx.Conv"(%2, %3, %4) {dilations = [1, 1], group = 1 : si64, kernel_shape = [3, 3], onnx_node_name = "Conv_1", pads = [1, 1, 1, 1], strides = [2, 2]} : (tensor<1x13x25x25xf32>, tensor<6x13x3x3xf32>, tensor<6xf32>) -> tensor<1x6x13x13xf32>
    %6 = "onnx.MaxPoolSingleOut"(%5) {kernel_shape = [2, 2], onnx_node_name = "MaxPool_2", pads = [0, 0, 1, 1], strides = [4, 4]} : (tensor<1x6x13x13xf32>) -> tensor<1x6x4x4xf32>

    //CHECK: [[ALPHA:%[^ ]*]] = torch.constant.float 0.0099999997764825821
    //CHECK: torch.aten.leaky_relu %20, [[ALPHA]] : !torch.vtensor<[1,6,4,4],f32>, !torch.float -> !torch.vtensor<[1,6,4,4],f32>
    %7 = "onnx.LeakyRelu"(%6) {alpha = 0.00999999977 : f32, onnx_node_name = "LeakyRelu_3"} : (tensor<1x6x4x4xf32>) -> tensor<1x6x4x4xf32>
    return %7 : tensor<1x6x4x4xf32>
  }
  "onnx.EntryPoint"() {func = @main_graph, numInputs = 1 : i32, numOutputs = 1 : i32, signature = "[    { \22type\22 : \22f32\22 , \22dims\22 : [1 , 3 , 50 , 50] , \22name\22 : \22input.1\22 }\0A\0A]\00@[   { \22type\22 : \22f32\22 , \22dims\22 : [1 , 6 , 4 , 4] , \22name\22 : \228\22 }\0A\0A]\00"} : () -> ()
}
