//RUN: onnx-mlir --EmitONNXIR --run-torch-pass %s -o=%t >/dev/null && cat %t.onnx.mlir | FileCheck -v %s

module attributes {llvm.data_layout = "e-m:e-p270:32:32-p271:32:32-p272:64:64-i64:64-f80:128-n8:16:32:64-S128", llvm.target_triple = "x86_64-unknown-linux-gnu"}  {
  func @main_graph(%arg0: tensor<1x3x252x252xf32>) -> tensor<1x5x6x6xf32> attributes {input_names = ["input.1"], output_names = ["7"]} {
    %0 = "onnx.Constant"() {value = dense<"…"> : tensor<13x3x7x7xf32>} : () -> tensor<13x3x7x7xf32>
    %1 = "onnx.Constant"() {value = dense<[-0.0488105156, -0.0284354109, -0.0274073537, 0.0147851268, 0.0348857492, 0.0350693427, -0.0023056746, 0.0370460525, 0.0400346145, 0.0805481374, 0.0267098173, 0.0368456803, 0.0235516392]> : tensor<13xf32>} : () -> tensor<13xf32>
    %2 = "onnx.Conv"(%arg0, %0, %1) {dilations = [1, 1], group = 1 : si64, kernel_shape = [7, 7], onnx_node_name = "Conv_0", pads = [1, 1, 1, 1], strides = [20, 20]} : (tensor<1x3x252x252xf32>, tensor<13x3x7x7xf32>, tensor<13xf32>) -> tensor<1x13x13x13xf32>
    %3 = "onnx.Constant"() {value = dense<"…"> : tensor<5x13x5x5xf32>} : () -> tensor<5x13x5x5xf32>
    %4 = "onnx.Constant"() {value = dense<[-0.00394202722, -0.0354933478, 0.00522273732, -0.0308895428, -0.0290875714]> : tensor<5xf32>} : () -> tensor<5xf32>
    %5 = "onnx.Conv"(%2, %3, %4) {dilations = [1, 1], group = 1 : si64, kernel_shape = [5, 5], onnx_node_name = "Conv_1", pads = [1, 1, 1, 1], strides = [2, 2]} : (tensor<1x13x13x13xf32>, tensor<5x13x5x5xf32>, tensor<5xf32>) -> tensor<1x5x6x6xf32>

    //CHECK: [[ALPHA:%[^ ]*]] = torch.constant.float 0.0099999997764825821
    //CHECK: torch.aten.leaky_relu %15, [[ALPHA]] : !torch.vtensor<[1,5,6,6],f32>, !torch.float -> !torch.vtensor<[1,5,6,6],f32>
    %6 = "onnx.LeakyRelu"(%5) {alpha = 0.00999999977 : f32, onnx_node_name = "LeakyRelu_2"} : (tensor<1x5x6x6xf32>) -> tensor<1x5x6x6xf32>
    return %6 : tensor<1x5x6x6xf32>
  }
  "onnx.EntryPoint"() {func = @main_graph, numInputs = 1 : i32, numOutputs = 1 : i32, signature = "[    { \22type\22 : \22f32\22 , \22dims\22 : [1 , 3 , 252 , 252] , \22name\22 : \22input.1\22 }\0A\0A]\00@[   { \22type\22 : \22f32\22 , \22dims\22 : [1 , 5 , 6 , 6] , \22name\22 : \227\22 }\0A\0A]\00"} : () -> ()
}
