//RUN: onnx-mlir --EmitONNXIR --run-torch-pass %s -o=%t >/dev/null && cat %t.onnx.mlir | FileCheck -v %s
module attributes {llvm.data_layout = "e-m:e-p270:32:32-p271:32:32-p272:64:64-i64:64-f80:128-n8:16:32:64-S128", llvm.target_triple = "x86_64-unknown-linux-gnu"}  {
  func @main_graph(%arg0: tensor<1x5x100x100xf32>) -> tensor<1x13x15x15xf32> attributes {input_names = ["input.1"], output_names = ["10"]} {
    %0 = "onnx.Constant"() {value = dense<"…"> : tensor<100x5x3x3xf32>} : () -> tensor<100x5x3x3xf32>
    %1 = "onnx.Constant"() {value = dense<[… > : tensor<100xf32>} : () -> tensor<100xf32>
    %2 = "onnx.Conv"(%arg0, %0, %1) {dilations = [1, 1], group = 1 : si64, kernel_shape = [3, 3], onnx_node_name = "Conv_0", pads = [1, 1, 1, 1], strides = [2, 2]} : (tensor<1x5x100x100xf32>, tensor<100x5x3x3xf32>, tensor<100xf32>) -> tensor<1x100x50x50xf32>
    %3 = "onnx.Constant"() {value = dense<"…"> : tensor<33x100x5x5xf32>} : () -> tensor<33x100x5x5xf32>
    %4 = "onnx.Constant"() {value = dense<[… > : tensor<33xf32>} : () -> tensor<33xf32>
    %5 = "onnx.Conv"(%2, %3, %4) {dilations = [1, 1], group = 1 : si64, kernel_shape = [5, 5], onnx_node_name = "Conv_1", pads = [2, 2, 2, 2], strides = [3, 3]} : (tensor<1x100x50x50xf32>, tensor<33x100x5x5xf32>, tensor<33xf32>) -> tensor<1x33x17x17xf32>
    %6 = "onnx.Constant"() {value = dense<"…"> : tensor<13x33x3x3xf32>} : () -> tensor<13x33x3x3xf32>
    %7 = "onnx.Constant"() {value = dense<[0.0248972289, -0.0571471266, 0.0256761499, -0.018720638, -0.0468500853, 0.0421348065, 0.00453218631, -0.0165909212, 0.0191199426, -0.0399044119, -0.0390765704, 0.0300529264, 0.0290881544]> : tensor<13xf32>} : () -> tensor<13xf32>
    %8 = "onnx.Conv"(%5, %6, %7) {dilations = [1, 1], group = 1 : si64, kernel_shape = [3, 3], onnx_node_name = "Conv_2", pads = [0, 0, 0, 0], strides = [1, 1]} : (tensor<1x33x17x17xf32>, tensor<13x33x3x3xf32>, tensor<13xf32>) -> tensor<1x13x15x15xf32>
//CHECK: [[ALPHA:%[^ ]*]] = torch.constant.float 0.0099999997764825821
    //CHECK: torch.aten.leaky_relu %22, [[ALPHA]] : !torch.vtensor<[1,13,15,15],f32>, !torch.float -> !torch.vtensor<[1,13,15,15],f32>
    %9 = "onnx.LeakyRelu"(%8) {alpha = 0.00999999977 : f32, onnx_node_name = "LeakyRelu_3"} : (tensor<1x13x15x15xf32>) -> tensor<1x13x15x15xf32>
    return %9 : tensor<1x13x15x15xf32>
  }
  "onnx.EntryPoint"() {func = @main_graph, numInputs = 1 : i32, numOutputs = 1 : i32, signature = "[    { \22type\22 : \22f32\22 , \22dims\22 : [1 , 5 , 100 , 100] , \22name\22 : \22input.1\22 }\0A\0A]\00@[   { \22type\22 : \22f32\22 , \22dims\22 : [1 , 13 , 15 , 15] , \22name\22 : \2210\22 }\0A\0A]\00"} : () -> ()
}
