//RUN: onnx-mlir --EmitONNXIR --run-torch-pass %s -o=%t >/dev/null && cat %t.onnx.mlir | FileCheck -v %s

module  {
  func @main_graph(%arg0: tensor<1x3x32x32xf32>) -> tensor<1x16x8x8xf32> attributes {input_names = ["input.1"], output_names = ["7"]} {
    %0 = "onnx.Constant"() {value = dense<"…"> : tensor<32x3x3x3xf32>} : () -> tensor<32x3x3x3xf32>
    %1 = "onnx.Constant"() {value = dense<[… > : tensor<32xf32>} : () -> tensor<32xf32>
    //CHECK: [[STRIDE:%.]] = torch.prim.ListConstruct %int1{{_*[0-9]*}}, %int1{{_*[0-9]*}} :
    //CHECK: [[DILATION:%.]] = torch.prim.ListConstruct %int1{{_*[0-9]*}}, %int1{{_*[0-9]*}} :
    //CHECK: [[PAD:%.]] = torch.prim.ListConstruct %int1, %int1{{_*[0-9]*}} :
    %2 = "onnx.Conv"(%arg0, %0, %1) {auto_pad = "NOTSET", dilations = [1, 1], group = 1 : si64, kernel_shape = [3, 3], onnx_node_name = "Conv_0", pads = [1, 1, 1, 1], strides = [1, 1]} : (tensor<1x3x32x32xf32>, tensor<32x3x3x3xf32>, tensor<32xf32>) -> tensor<1x32x32x32xf32>
    //CHECK: torch.aten.conv2d %arg0, %{{[0-9]}}, %{{[0-9]}}, [[STRIDE]], [[PAD]], [[DILATION]], %int1{{_*[0-9]*}} : !torch.vtensor<[1,3,32,32],f32>, !torch.vtensor<[32,3,3,3],f32>, !torch.vtensor<[32],f32>, !torch.list<int>, !torch.list<int>, !torch.list<int>, !torch.int -> !torch.vtensor<[1,32,32,32],f32>
    %3 = "onnx.Constant"() {value = dense<"…"> : tensor<16x32x3x3xf32>} : () -> tensor<16x32x3x3xf32>
    %4 = "onnx.Constant"() {value = dense<[… > : tensor<16xf32>} : () -> tensor<16xf32>
    %5 = "onnx.Conv"(%2, %3, %4) {auto_pad = "NOTSET", dilations = [1, 1], group = 1 : si64, kernel_shape = [3, 3], onnx_node_name = "Conv_1", pads = [1, 1, 1, 1], strides = [2, 2]} : (tensor<1x32x32x32xf32>, tensor<16x32x3x3xf32>, tensor<16xf32>) -> tensor<1x16x16x16xf32>
    %6 = "onnx.MaxPoolSingleOut"(%5) {auto_pad = "NOTSET", dilations = [1, 1], kernel_shape = [2, 2], onnx_node_name = "MaxPool_2", pads = [0, 0, 0, 0], strides = [2, 2]} : (tensor<1x16x16x16xf32>) -> tensor<1x16x8x8xf32>
    return %6 : tensor<1x16x8x8xf32>
  }
  "onnx.EntryPoint"() {func = @main_graph, numInputs = 1 : i32, numOutputs = 1 : i32, signature = "[    { \22type\22 : \22float\22 , \22dims\22 : [1 , 3 , 32 , 32]  }\0A\0A]\00@[   { \22type\22 : \22float\22 , \22dims\22 : [1 , 16 , 8 , 8]  }\0A\0A]\00"} : () -> ()
}
